temperature_lstm.pth (torch, 206070 bytes, 9 tensors)

lstm.weight_ih_l0 f4 [256, 1]
0	0x3e40a557	0.18813072
1	0xbdbd90cf	-0.09256136
2	0xbeaccac6	-0.33748454
3	0xbeec9c5f	-0.46213052
4	0x3efdac41	0.49545482
5	0xbba81ae9	-0.005130161
6	0x3df03932	0.11729659
7	0xbe5b8597	-0.21437679
8	0x3e1f0cdc	0.15532249
9	0xbe90c990	-0.2827878
10	0x3ec7d3c6	0.39028758
11	0x3dd0b21b	0.10190221
12	0x3d358b62	0.04432238
13	0x3e9bf647	0.30461332
14	0x3ea0f016	0.3143317
15	0x3e3c63b8	0.18397415
16	0x3e066827	0.13125668
17	0x3e57e122	0.21081975
18	0x3d87ef24	0.06637409
19	0x3f33bb74	0.70207906
20	0xbe87560d	-0.2643284
21	0x3d2e8913	0.042611193
22	0xbdef24ee	-0.11676966
23	0x3d517848	0.0511401
24	0x3ec544de	0.38529104
25	0x3da9e013	0.08294692
26	0xbe777f02	-0.24169543
27	0x3f1a8f58	0.60374975
28	0x3e1b8e2f	0.15190957
29	0x3f257350	0.6462908
30	0x3e8c877b	0.27447113
31	0x3d904b5c	0.07045624
32	0x3dfa2bf6	0.12215416
33	0xbcdb9300	-0.026803493
34	0x3e5cb52c	0.21553487
35	0xbd048509	-0.032353435
36	0xbe4a2b3a	-0.19743052
37	0x3e9554d8	0.29166293
38	0xbde0b1d5	-0.10971419
39	0xbe019485	-0.12654312
40	0x3e0bf05c	0.13665909
41	0xbe21b657	-0.15792213
42	0x3b9bf656	0.00475959
43	0x3e56a728	0.20962203
44	0x3e886b02	0.2664414
45	0xbd2f7867	-0.042839434
46	0xbd2cbdf7	-0.042173352
47	0x3c4c4409	0.012467393
48	0xbd470a5f	-0.048593875
49	0x3e462d52	0.19353226
50	0x3e94ae16	0.29039067
51	0xbe8e1eb3	-0.27757797
52	0xbe7aae0f	-0.2448046
53	0x3f083b52	0.53215516
54	0xbd660629	-0.05615822
55	0xbe6c27e8	-0.23062098
56	0xbe346145	-0.1761523
57	0x3e1370f0	0.14398551
58	0xbe47761d	-0.1947865
59	0x3e4dccbd	0.20097633
60	0x3d786484	0.060642734
61	0x3de555ed	0.1119803
62	0x3e2ec537	0.17067419
63	0x3e8cf429	0.2753003
64	0xbe234faa	-0.15948358
65	0x3d5acf1f	0.053420182
66	0xbeb11c2f	-0.34591815
67	0x3ecf0d29	0.40439728
68	0x3e3bd68a	0.18343559
69	0xbddb5b14	-0.10710731
70	0x3d9cb9de	0.07652639
71	0x3e0a5013	0.13507108
72	0xbeb3aa98	-0.3509109
73	0xbe2212e3	-0.15827517
74	0x3dff42c6	0.12463908
75	0x3e1a51d2	0.15070274
76	0x3e3f35aa	0.18672815
77	0x3f260748	0.6485486
78	0x3e68b4ac	0.22725171
79	0xbda5d969	-0.08098108
80	0xbd45c7fa	-0.048286416
81	0x3e97aedb	0.29625592
82	0xbec162e0	-0.37770748
83	0x3ece3445	0.40274253
84	0x3d56dbf4	0.052455857
85	0xbd11d639	-0.03560469
86	0xbe9000e6	-0.28125685
87	0xbe1bac24	-0.15202385
88	0xbc7e6554	-0.015527088
89	0xbe469539	-0.19392861
90	0xbebec62e	-0.37260574
91	0x3e5e53e5	0.2171169
92	0x3ed58afc	0.417076
93	0xbdf246f9	-0.11829943
94	0xbe558b99	-0.20854034
95	0x3db0f8f8	0.08641237
96	0x3d08894f	0.033334073
97	0xbdd19053	-0.10232606
98	0xbb9694a7	-0.0045953575
99	0xbe72c5ae	-0.23708221
100	0xbe58c040	-0.21167088
101	0x3ec5c6d6	0.38628262
102	0x3dfada8c	0.12248716
103	0xbea3cb09	-0.3199084
104	0xbcd2ff50	-0.025756508
105	0x3ddbc942	0.10731746
106	0x3d60389a	0.05474148
107	0x3e440052	0.19140747
108	0x3d84fa86	0.06493096
109	0x3e74ad0a	0.23894134
110	0xbe2e9399	-0.17048492
111	0x3ec24b73	0.37948188
112	0x3e2c0d62	0.1680198
113	0xbe237be0	-0.15965223
114	0x3e25f822	0.16207936
115	0xbdf3fcb5	-0.119134344
116	0xbe077ddd	-0.13231607
117	0x3d1fe335	0.03903504
118	0xbc5477f9	-0.012968057
119	0xbec3fbe6	-0.3827812
120	0xbec89911	-0.3917928
121	0x3c7c2791	0.015390293
122	0xbe3fb8b6	-0.18722805
123	0x3e31d1b2	0.17365149
124	0x3e3b3c42	0.18284705
125	0x3ec4d64e	0.38444752
126	0x3ddb332b	0.10703119
127	0x3ec635d0	0.3871293
128	0x3e7df66e	0.24801037
129	0x3ef426af	0.47685763
130	0xbedded9b	-0.4334534
131	0x3f2f74a9	0.68537384
132	0xbef4ecfa	-0.4783705
133	0xbec6069f	-0.38676926
134	0x3e5951aa	0.21222559
135	0x3c0e8831	0.008699463
136	0xbf0322cc	-0.5122497
137	0x3e183753	0.14864855
138	0xbf04d6be	-0.5189017
139	0xbeefbc19	-0.46823195
140	0xbcf60baf	-0.030034868
141	0xbdcd68a9	-0.10029728
142	0xbee1e9a9	-0.4412358
143	0xbebc5576	-0.36783952
144	0xbe1f52a6	-0.15558872
145	0x3ca27152	0.019829426
146	0x3eaa941c	0.33316123
147	0xbecb0751	-0.3965402
148	0xbe004839	-0.12527551
149	0xbee98141	-0.45606425
150	0x3ea53f04	0.3227464
151	0x3e6d785d	0.23190446
152	0xbea73a86	-0.32661837
153	0x3f0e3dcf	0.5556306
154	0x3ceb1d5c	0.028700523
155	0xbf03c189	-0.51467186
156	0xbd7a2976	-0.061074696
157	0xbee3040d	-0.44339028
158	0x3eab7b9e	0.3349275
159	0x3e5c44d4	0.21510631
160	0xbc90bfb9	-0.017669545
161	0x3e5003fd	0.20314021
162	0x3ee0346f	0.43790004
163	0xbeb4e85f	-0.35333535
164	0x3ef49b07	0.47774526
165	0xbefcc7ed	-0.4937128
166	0xbd7ea26e	-0.062166624
167	0xbe8a5283	-0.27016076
168	0xbef64a83	-0.48103723
169	0xbe2fe5bd	-0.17177482
170	0xbeef669a	-0.46757966
171	0xbe3a0612	-0.18166378
172	0x3f0a4d92	0.5402461
173	0x3eba2cd0	0.36362314
174	0x3e2d91c8	0.16950142
175	0x3e991a12	0.29902703
176	0xbef01755	-0.468928
177	0xbec883ec	-0.39163148
178	0x3ef95824	0.48700058
179	0x3f009d2a	0.50239813
180	0x3d698dec	0.057020113
181	0x3edec696	0.43510884
182	0xbe70b33a	-0.2350587
183	0x3ec92e70	0.39293242
184	0x3eebbb51	0.4604135
185	0x3e7217d3	0.236419
186	0x3ef514ee	0.4786753
187	0xbf00324a	-0.50076735
188	0xbee9f6af	-0.45696017
189	0x3ec49dcb	0.38401636
190	0x3ef51bb5	0.478727
191	0xbebf3bb8	-0.3735025
192	0x3e8e6a7d	0.2781562
193	0xbe0082f4	-0.12549955
194	0xbe97199a	-0.2951172
195	0x3d143f17	0.03619298
196	0x3f03590e	0.5130776
197	0xbe607fc5	-0.2192374
198	0x3ebf2bdc	0.3733815
199	0xbdba33ef	-0.09091937
200	0x3dd9fe54	0.10644212
201	0xbe7f5157	-0.24933372
202	0x3eeba314	0.46022856
203	0x3e0f3b9c	0.13987583
204	0x3ed8ad28	0.42319608
205	0xbd03af77	-0.03214976
206	0x3e8429ba	0.25813085
207	0x3e36237a	0.1778697
208	0x3e06a821	0.13150074
209	0x3ed41f60	0.41430187
210	0xbebab5b5	-0.36466756
211	0x3f65b8d0	0.89735126
212	0xbe9b4bfb	-0.30331406
213	0x3d62f408	0.055408508
214	0xbded243a	-0.11579175
215	0x3daa07d9	0.08302278
216	0x3f039ff7	0.5141596
217	0xbd4bff49	-0.049804006
218	0xbe9ba19a	-0.3039673
219	0x3ea645c0	0.3247509
220	0x3ed74708	0.4204638
221	0x3ef757c4	0.48309147
222	0x3d62ce0e	0.05537229
223	0x3dd7114a	0.105013445
224	0xbe189da7	-0.1490389
225	0xbe696440	-0.22792149
226	0x3ce11644	0.027476437
227	0xbda9defd	-0.08294485
228	0xbe56603e	-0.20935151
229	0x3e958365	0.2920181
230	0x3c820f25	0.015876362
231	0xbdcb0519	-0.09913082
232	0xb88981e8	-6.556866e-05
233	0x3d2bf1f0	0.041978776
234	0x3d72233a	0.059115626
235	0x3ec06d89	0.3758357
236	0x3e870543	0.26371202
237	0x3c03e1d4	0.008049447
238	0xbd61753c	-0.055043444
239	0x3de14590	0.10999596
240	0xbcd08714	-0.025455035
241	0xbccec53b	-0.025240531
242	0x3e901a13	0.28144893
243	0xbe937b40	-0.2880497
244	0xbe3dfccb	-0.18553464
245	0x3e289e80	0.16466713
246	0x3dd7508b	0.10513409
247	0xbecd4ca3	-0.40097532
248	0xbe0424e7	-0.12904702
249	0x3dc030c2	0.093843
250	0xbe5a8f41	-0.2134371
251	0x3dd1e220	0.10248208
252	0xbdaf9d32	-0.085749045
253	0x3e70e08a	0.23523155
254	0x3e283d05	0.16429527
255	0x3f13ba6a	0.5770632

lstm.weight_hh_l0 f4 [256, 64]
0	0xbf269934	-0.6507752
1	0xbe41d808	-0.18930066
2	0xbdb44295	-0.08801762
3	0xbf3eb3b8	-0.7449298
4	0x3e0b7741	0.1361971
5	0x3e59840d	0.2124178
6	0xbf30d347	-0.69072384
7	0xbeb382cf	-0.35060737
8	0xbee6fd98	-0.45115352
9	0x3f38c43b	0.72174424
10	0x3f0af591	0.54280955
11	0x3f195b1d	0.5990465
12	0xbf404dcc	-0.7511871
13	0xbf7d7c53	-0.9901783
14	0x3ee9adc1	0.45640376
15	0xbf2b4c44	-0.6691325
16	0x3f232af7	0.63737434
17	0xbf837194	-1.0269036
18	0xbf412bb5	-0.75457317
19	0x3dcdb360	0.10043979
20	0xbeaec7ff	-0.3413696
21	0x3e0eddfc	0.13951868
22	0x3d496179	0.049165223
23	0x3e874399	0.2641876
24	0x3e9390f4	0.28821528
25	0xbe835da3	-0.25657377
26	0x3f4f352f	0.80940527
27	0x3e8dda7d	0.27705756
28	0x3f37728a	0.7165915
29	0xbe830df3	-0.2559658
30	0xbc2fdb32	-0.010733413
31	0x3f459a1e	0.7718829
32	0xbf3ba465	-0.7329772
33	0x3e05163e	0.12996766
34	0x3e73457b	0.23756973
35	0xbe3419c3	-0.17587952
36	0x3d8c273e	0.06843422
37	0x3f365ec9	0.7123838
38	0x3f3ee87f	0.7457351
39	0xbe69ca3d	-0.22831054
40	0x3d1377d5	0.036002953
41	0xbe2b8c67	-0.16752778
42	0x3e9ed362	0.31020647
43	0x3f00a229	0.50247437
44	0xbee9ec86	-0.45688266
45	0xbebc5bd0	-0.36788797
46	0xbe218b9d	-0.15775914
47	0xbd90f152	-0.07077278
48	0x3f1fc590	0.6241083
49	0xbe6fe5df	-0.23427533
50	0xbec907c8	-0.3926375
51	0xbe894ede	-0.26817983
52	0x3f73baf5	0.9520715
53	0x3e641bda	0.2227625
54	0xbecf42ae	-0.4048056
55	0x3eb5fcf4	0.3554455
56	0x3ed3a36b	0.41335616
57	0x3f000b5b	0.5001733
58	0x3d8d9815	0.06913773
59	0x3e9f7fe3	0.31152257
60	0x3e9cc833	0.3062149
61	0xbf1a3e97	-0.60251755
62	0xbf10b542	-0.5652658
63	0x3ee8da8a	0.45479232
64	0xbe29d7b0	-0.16586185
65	0x3db5e6e5	0.0888193
66	0x3cad0bb5	0.021123746
67	0xbec61a28	-0.3869183
68	0x3d84dd58	0.064875305
69	0x3d00a34f	0.031405743
70	0x3d339322	0.04384149
71	0xbe7dd51d	-0.24788328
72	0x3d0fdf49	0.03512505
73	0x3df70f5c	0.120634764
74	0xbd4284f5	-0.04749008
75	0xbda50bc9	-0.080588885
76	0x3d1d91cb	0.038469117
77	0xbda7e5bb	-0.081981145
78	0xbc50d14a	-0.012745211
79	0xbbe82d38	-0.0070854686
80	0x3e2640d2	0.16235664
81	0xbcac8092	-0.0210574
82	0x3e78e826	0.24307308
83	0xbe7bf567	-0.24605332
84	0xbddbc14d	-0.107302286
85	0xbd9e113a	-0.077181295
86	0x3e0762dd	0.13221307
87	0x3d8a75c1	0.06760741
88	0xbd8b0ec6	-0.06789927
89	0xbda27fdd	-0.07934544
90	0x3d3af69e	0.04564535
91	0xbe08d8c5	-0.13363941
92	0x3e262c8e	0.16227934
93	0xbe1a0465	-0.15040739
94	0xbe42ed46	-0.19035825
95	0x3d7385e7	0.05945387
96	0x3ccd216f	0.025040356
97	0x3e1dca09	0.15409102
98	0xbe4a3691	-0.19747378
99	0x3de3a052	0.11114563
100	0x3dad40e6	0.08459644
101	0xbc7e9cc8	-0.015540309
102	0x3dff7d88	0.12475115
103	0xbc25cd2e	-0.010119719
104	0x3e0b8469	0.13624729
105	0x3ee65c03	0.44992074
106	0x3cc1a18e	0.023636606
107	0xbe683913	-0.22678022
108	0xbdb027f9	-0.08601374
109	0xbe12d694	-0.14339668
110	0x3e51a85a	0.20474377
111	0x3d5d7406	0.054065727
112	0x3d92fc9b	0.07177087
113	0xbe4d1eb1	-0.20031239
114	0x3c135814	0.008993167
115	0xbe10a3c9	-0.14124979
116	0x3cc6f086	0.024284612
117	0x3e4272a0	0.18989038
118	0xbebedb42	-0.37276655
119	0xbcda1551	-0.026621493
120	0xbeadaff5	-0.33923307
121	0xbd397f84	-0.045287624
122	0xbda6462d	-0.08118854
123	0xbdf3a530	-0.118967414
124	0xbd54392d	-0.05181234
125	0xbd5e4332	-0.0542633
126	0xbe0e162e	-0.13875648
127	0xbe4cec6e	-0.20012066
128	0xbea1f04a	-0.31628639
129	0x3da8eec2	0.082486644
130	0xbe7dd490	-0.24788117
131	0xbee99790	-0.45623446
132	0xbc9a0ab8	-0.01880394
133	0xbd01a655	-0.031652767
134	0xbd477851	-0.048698727
135	0xbefedf15	-0.49779573
136	0xbe1b1169	-0.1514336
137	0x3ee20073	0.44140968
138	0x3f0a3d20	0.5399952
139	0x3eba5a4f	0.36397025
140	0x3d92eaef	0.07173716
141	0xbe3956f4	-0.18099576
142	0x3ea151bd	0.31507674
143	0xbe81b906	-0.25336474
144	0x3ea5ab9d	0.32357493
145	0x3cca3b82	0.024686579
146	0x3d399d2b	0.045315903
147	0xbe87d268	-0.26527715
148	0xbec7a3f2	-0.38992268
149	0xbe042180	-0.12903404
150	0xbe8aac0a	-0.2708438
151	0x3d3d1220	0.046159863
152	0x3e5e7f45	0.21728237
153	0xbdfc518f	-0.123202436
154	0x3e748bfa	0.23881522
155	0xbe3d4c48	-0.1848613
156	0x3df30226	0.11865644
157	0xbe42015d	-0.18945833
158	0x3e29fe28	0.16600859
159	0x3f022e0c	0.5085151
160	0xbe3affd8	-0.18261659
161	0x3cb8fc8f	0.022581367
162	0xbe2c2025	-0.16809137
163	0x3ca46945	0.020069728
164	0x3e147f0b	0.14501588
165	0x3e43344c	0.19062918
166	0x3f27d25d	0.65555364
167	0xbe126cc1	-0.14299299
168	0xbba854bb	-0.005137054
169	0x3e32c37c	0.17457384
170	0x3e3a0e17	0.18169437
171	0x3bf8908e	0.0075855916
172	0xbe37f15a	-0.17963162
173	0x3c8a836e	0.016908374
174	0x3e3c6c42	0.18400672
175	0x3d959916	0.073045895
176	0x3d8f3369	0.069922276
177	0xbd9e940c	-0.077430815
178	0xbd8bce5c	-0.06826469
179	0xbdfe6144	-0.12420896
180	0x3e53fca1	0.20701839
181	0x3e14f216	0.14545473
182	0xbf380769	-0.71886307
183	0x3e0f9b7e	0.1402416
184	0x3e88c0d5	0.2670962
185	0x3c84dbc6	0.016218077
186	0x3e12f054	0.1434949
187	0x3dfb690a	0.12275894
188	0xbcbed64b	-0.023295542
189	0xbdb85d0c	-0.09002122
190	0xbe89cc60	-0.26913738
191	0xbd34d25f	-0.044145938
192	0x3fccda6a	1.6004155
193	0x3ebe25f3	0.37138328
194	0x3eb3996c	0.3507799
195	0x3f69017b	0.91017884
196	0xbf16b3a9	-0.5886789
197	0x3eddb975	0.43305555
198	0x3f8a77d2	1.0817816
199	0x3f481c33	0.7816803
200	0xbea6e8c8	-0.32599473
201	0xbf6d3d40	-0.92671585
202	0xbf87f64e	-1.0622041
203	0xbf73cb0a	-0.9523169
204	0x3fbce60a	1.4757702
205	0x3fb80425	1.4376265
206	0xbf9555f2	-1.1666853
207	0x3e836ba7	0.2566807
208	0xbf605030	-0.87622356
209	0x3fb22754	1.3918252
210	0x3f53d43e	0.8274573
211	0xbe16e21e	-0.14734694
212	0x3e9fc94f	0.31208274
213	0x3de06b74	0.10957995
214	0xbf281304	-0.65654016
215	0xbe2fde76	-0.17174706
216	0xbf6539a2	-0.89541066
217	0x3e2cdaf1	0.16880395
218	0xbf8518a3	-1.0398144
219	0xbe0e128a	-0.1387426
220	0xbf96bb38	-1.1775885
221	0x3b92ce61	0.0044801687
222	0x3e0fa27e	0.1402683
223	0xbf4bb279	-0.795692
224	0x3f830e21	1.0238687
225	0xbd9fe135	-0.07806627
226	0x3c857ea4	0.016295739
227	0xbeefd5ca	-0.46842796
228	0x3d970f57	0.07375973
229	0xbf342d4f	-0.70381635
230	0xbf653f59	-0.89549786
231	0x3f3c44d1	0.73542506
232	0xbd720f7c	-0.0590968
233	0xbdb5cdca	-0.08877142
234	0xbfbaa7ed	-1.4582497
235	0xbf7ca8d1	-0.98695093
236	0x3f6823e5	0.9067977
237	0x3eb54acb	0.35408625
238	0x3f5756c7	0.84116787
239	0xbe8b257a	-0.2717703
240	0xbf6e2702	-0.9302827
241	0x3e56901d	0.20953412
242	0x3ef571c1	0.4793835
243	0x3f200d82	0.6252061
244	0xbfa9cf4c	-1.3266387
245	0xbe0f4e23	-0.1399465
246	0x3e1f9d57	0.15587364
247	0xbf1cf3c6	-0.6130947
248	0x3eddbecc	0.4330963
249	0xbea27049	-0.31726292
250	0x3e505f7a	0.20348921
251	0xbca073b6	-0.019586425
252	0xbcb6dac2	-0.022321109
253	0x3f59c338	0.85063505
254	0x3f8282fe	1.0196226
255	0xbf7d77ea	-0.990111

lstm.bias_ih_l0 f4 [256]
0	0xbe79d0a8	-0.24396002
1	0x3e1cf38a	0.15327278
2	0xbdc77626	-0.09739332
3	0x3f216c0a	0.6305548
4	0x3e426373	0.1898325
5	0xbdc2b063	-0.09506299
6	0xbf0357f7	-0.513061
7	0xbf0d6565	-0.5523284
8	0x3d41c28b	0.04730467
9	0xbeee851a	-0.46585923
10	0x3bc593c9	0.0060295803
11	0xbd2107be	-0.039314024
12	0xbdb6ffb5	-0.08935491
13	0x3e170746	0.14748868
14	0xbe30d458	-0.17268503
15	0xbc42613e	-0.011864005
16	0xbec2bb2f	-0.38033435
17	0xbd9dbdfc	-0.07702252
18	0xbe563996	-0.20920405
19	0x3e6c2d17	0.23064075
20	0xbf22cf5d	-0.6359766
21	0x3e9435de	0.28947347
22	0xbe0e183c	-0.13876432
23	0xbf3d786e	-0.74011886
24	0xbe9854a1	-0.29752067
25	0x3ebfbee5	0.37450328
26	0xbeb8a6ad	-0.36064664
27	0x3f07c300	0.5303192
28	0xbec9a16d	-0.3938097
29	0xbd257492	-0.040394373
30	0xbceb8b73	-0.028753018
31	0xbf37291d	-0.7154711
32	0xbe98c045	-0.2983419
33	0xbf3bc05d	-0.733404
34	0x3e3e951b	0.18611567
35	0xbe1ec123	-0.15503363
36	0x3e3a3d94	0.18187553
37	0x3e5c776e	0.21529934
38	0xbf0eb25a	-0.5574089
39	0xbf11b3d2	-0.5691501
40	0x3e9b8104	0.3037187
41	0xbe0d6a7f	-0.13810156
42	0xbe1b22bf	-0.15149973
43	0xbe66f7ac	-0.22555417
44	0x3eeb33ed	0.45938054
45	0x3cd57f37	0.026061637
46	0xbf20c6ad	-0.62803155
47	0x3c4e76fb	0.012601609
48	0x3ecce704	0.4002
49	0xbe60c204	-0.21949011
50	0x3ef9c505	0.48783126
51	0x3e667284	0.22504622
52	0x3d173810	0.0369187
53	0x3d90bba1	0.070670374
54	0xbf0d8e61	-0.5529538
55	0x3bd78ca0	0.006578043
56	0x3dc49f3e	0.096006855
57	0xbf056bf7	-0.52117866
58	0x3b2d5aa7	0.0026451738
59	0x3eba4021	0.3637705
60	0x3dda4b93	0.10658946
61	0xbebde0b6	-0.37085503
62	0x3d8a6608	0.06757742
63	0xbe8b1f53	-0.27172336
64	0xbf6af81b	-0.9178483
65	0xbdfcaa53	-0.12337174
66	0xbe27103a	-0.16314784
67	0xbdbed99b	-0.09318849
68	0xbe045dcb	-0.12926404
69	0xbe2b9e5c	-0.16759628
70	0xbeb99818	-0.3624885
71	0xbf039b98	-0.5140929
72	0xbeb04925	-0.34430805
73	0xbe55c959	-0.2087759
74	0xbe1fdafc	-0.1561088
75	0xbe8ea82d	-0.27862683
76	0x3ce45ea8	0.027877167
77	0x3e480d34	0.19536287
78	0xbea087e7	-0.31353685
79	0xbe5f3fe1	-0.21801712
80	0xbf645141	-0.89186484
81	0x3e81a01e	0.25317472
82	0x3f27e9ec	0.6559131
83	0xbd89fd59	-0.06737775
84	0xbec6e77f	-0.38848493
85	0xbdf57283	-0.11984732
86	0xbebd1fe0	-0.3693838
87	0xbf0d3b6e	-0.5516881
88	0xbf21164c	-0.6292465
89	0xbd1be2d4	-0.038058117
90	0xbd024a0d	-0.0318089
91	0x3cb864bc	0.022508971
92	0xbd4eaffd	-0.050460804
93	0xbbfb967c	-0.0076778512
94	0x3da0e41e	0.0785601
95	0xbef26f3c	-0.4735049
96	0x3df374d0	0.118875146
97	0xbecd4a72	-0.4009586
98	0xbea7020b	-0.32618746
99	0xbec74d73	-0.38926277
100	0xbdad7145	-0.0846887
101	0xbe2efb9e	-0.17088172
102	0xbe9a6c55	-0.30160776
103	0xbec98ba1	-0.3936434
104	0x3d616243	0.05502535
105	0xbf081970	-0.53163815
106	0xbe3abde1	-0.18236496
107	0xbe30edf6	-0.17278275
108	0xbe93e48c	-0.28885305
109	0x3e3cb27d	0.18427463
110	0xbcd1557a	-0.025553454
111	0xbce6af0b	-0.028159639
112	0xbc07b47a	-0.008282775
113	0xbe5978f3	-0.21237545
114	0x3d333459	0.043751094
115	0xbe842b69	-0.2581437
116	0x3e040a7e	0.12894627
117	0x3c6f1baa	0.014593998
118	0xbe6cdb9b	-0.23130648
119	0xbd0f4931	-0.03498191
120	0xbeb19672	-0.34685093
121	0xbef5393c	-0.4789523
122	0xbe864cef	-0.2623057
123	0xbc78621d	-0.015160111
124	0xbd088610	-0.033330977
125	0xbe4ffe06	-0.20311746
126	0xbe9b2af9	-0.30306223
127	0xbe2dca8b	-0.16971795
128	0x3e73bd00	0.23802567
129	0xbce7201c	-0.028213553
130	0xbd43f3d5	-0.04783996
131	0xbce67e13	-0.028136289
132	0x3df8989d	0.12138484
133	0xbd250275	-0.040285546
134	0x3cf9cc37	0.030492885
135	0x3d2b89e2	0.041879542
136	0xbd9662be	-0.07343052
137	0xbd6075c4	-0.05479981
138	0x3d9abd0b	0.07555588
139	0x3d03d798	0.032188028
140	0x3e04b836	0.12960896
141	0x3e0bc2e2	0.1364856
142	0x3d1d9411	0.038471285
143	0x3c8f27d6	0.01747505
144	0xbdf12ed5	-0.117765106
145	0x3df7e5a8	0.1210435
146	0x3e18830a	0.14893737
147	0x3e13b157	0.14423119
148	0x3e1db17a	0.15399733
149	0x3db09b9d	0.08623431
150	0xbd255dbd	-0.0403726
151	0xbcaae2c9	-0.020860093
152	0xbc9645df	-0.018343864
153	0x3d49c1ac	0.049256966
154	0x3db3ba1f	0.08775734
155	0x3e06ce5b	0.13164656
156	0x3d0b9b8c	0.034083888
157	0x3dead040	0.11465502
158	0x3c2eeba5	0.010676299
159	0xbd869c7a	-0.06572814
160	0xbcdfb7b6	-0.02730928
161	0xbb684358	-0.003544053
162	0xbc80df20	-0.015731394
163	0xbd5b8910	-0.05359751
164	0x3d39b5b7	0.045339312
165	0x3a8234a2	0.0009933899
166	0xbdc13847	-0.09434562
167	0xbb81dd19	-0.0039631245
168	0x3dc565bc	0.09638545
169	0xbe837139	-0.2567232
170	0x3d1868e7	0.037209418
171	0x3e10515a	0.14093533
172	0x3db094ae	0.086221084
173	0xbe692793	-0.22769003
174	0xbbee2efe	-0.0072687855
175	0xbe436c0f	-0.1908419
176	0xbe06a076	-0.13147148
177	0x3bb4527c	0.005502997
178	0xbd05c284	-0.032656208
179	0x3dd60a27	0.10451155
180	0xbe1a7ddb	-0.15087073
181	0xbe2b40ed	-0.16723986
182	0x3d965868	0.07341081
183	0xbb443e7d	-0.0029944472
184	0xbd4d4be1	-0.050121192
185	0x3cee8df0	0.029120415
186	0x3dad73e4	0.0846937
187	0x3e2e65b0	0.17030978
188	0x3e04d19b	0.12970583
189	0xbd816e09	-0.06319816
190	0x3da87a29	0.08226425
191	0x3d5c6a55	0.053812344
192	0xbe9ce2b6	-0.30641717
193	0x3db2703a	0.08712812
194	0xbe54756b	-0.20747916
195	0x3f6d2957	0.92641205
196	0x3e8ce0c1	0.27515224
197	0x3cc6f81e	0.024288233
198	0xbf111251	-0.56668574
199	0xbf1a2ff1	-0.602294
200	0x3ebb1704	0.36540997
201	0xbe987106	-0.2977373
202	0x3e203c4a	0.15647998
203	0xbdd31854	-0.103073746
204	0xbeec6a26	-0.46174735
205	0xbe38c810	-0.18045068
206	0xbdaa6267	-0.0831955
207	0x3d208bf1	0.03919596
208	0xbdc91efe	-0.098203644
209	0xbb883850	-0.0041571036
210	0x3db285ca	0.087169245
211	0x3eb3d091	0.3512006
212	0xbf09a8f4	-0.53773427
213	0x3ee58a30	0.4483199
214	0xbe657a1e	-0.22409865
215	0xbf29670b	-0.66172856
216	0xbe70dd34	-0.23521882
217	0x3ed59666	0.41716307
218	0xbedd2308	-0.4319079
219	0x3f1eadf7	0.619842
220	0xbed8b5dc	-0.42326248
221	0x3e3ce268	0.18445742
222	0xbd7c69f5	-0.061624486
223	0xbf34162b	-0.70346326
224	0xbe8ccca9	-0.27499893
225	0xbf377304	-0.71659875
226	0x3e369d79	0.17833509
227	0xbe7a70ea	-0.24457136
228	0x3e9a3d5c	0.30124938
229	0x3e83fd4b	0.25779185
230	0xbf43b4be	-0.76447666
231	0xbf1c5a7b	-0.6107556
232	0x3ec692af	0.38783786
233	0x3db73683	0.08945944
234	0xbd4b47bd	-0.04962896
235	0xbefe8621	-0.49711707
236	0x3ee1de5d	0.44114962
237	0x3cb81c74	0.022474505
238	0xbef9017c	-0.48633945
239	0x3ea80562	0.32816607
240	0x3f06e8d7	0.52699035
241	0xbe5c1c70	-0.21495223
242	0x3f035db9	0.51314884
243	0x3ec783ad	0.38967648
244	0xbc9688d7	-0.018375797
245	0x3ec1d713	0.378594
246	0xbeac5a41	-0.33662608
247	0xbde0f3c0	-0.109839916
248	0xbc8b1b59	-0.016980814
249	0xbf1be36c	-0.60893893
250	0x3c60a0b3	0.013710189
251	0x3ec7fc5c	0.39059722
252	0x3e1efc8b	0.15526025
253	0xbede79da	-0.4345234
254	0x3e58b726	0.21163616
255	0xbe828c79	-0.25497797

lstm.bias_hh_l0 f4 [256]
0	0xbe802c12	-0.25033623
1	0x3d66ba3c	0.05632995
2	0xbe5b5c70	-0.21421981
3	0x3f067a58	0.5253043
4	0x3e9f5297	0.311177
5	0x3cc036c0	0.023463607
6	0xbf2bddbd	-0.6713522
7	0xbf040a81	-0.5157853
8	0x3e30eac7	0.1727706
9	0xbedef6a8	-0.4354756
10	0xbb7ac2b3	-0.0038263022
11	0xbe11d9c6	-0.1424323
12	0xbe1f2fa6	-0.1554552
13	0x39f90330	0.00047495356
14	0xbe779ba2	-0.24180463
15	0xbe3e352f	-0.18574975
16	0xbeb1b985	-0.34711853
17	0x3da58b68	0.0808323
18	0xbe72b150	-0.23700452
19	0x3e992f3d	0.29918852
20	0xbf0bf233	-0.5466644
21	0x3ed7dc4e	0.42160267
22	0xbe71a574	-0.23598272
23	0xbf3d5df6	-0.739715
24	0xbe90c6f9	-0.28276804
25	0x3e899569	0.26871803
26	0xbeff3c6e	-0.49850792
27	0x3ee3eafe	0.44515222
28	0xbef80d15	-0.4844748
29	0x3c09c962	0.00840983
30	0xbda52f53	-0.08065667
31	0xbf49b143	-0.78786105
32	0xbe27285b	-0.16323988
33	0xbf30f1af	-0.6911878
34	0x3da642e6	0.081182286
35	0xbe26cf67	-0.16290055
36	0x3e92c313	0.28664455
37	0x3cdb776f	0.026790349
38	0xbf1ae9ba	-0.6051289
39	0xbeed2171	-0.46314576
40	0x3ecbed8a	0.39829665
41	0x3c024929	0.007952013
42	0xbdaf5f26	-0.0856307
43	0xbea7fb35	-0.32808843
44	0x3eed0c19	0.46298292
45	0x3dfb9de3	0.12285974
46	0xbf372acf	-0.71549696
47	0x3e201ec0	0.1563673
48	0x3ee0d17a	0.43909818
49	0xbe54ad9a	-0.20769349
50	0x3ecc7763	0.39934835
51	0x3e0c2026	0.13684139
52	0xbc741367	-0.014897204
53	0x3cfa93f9	0.030588137
54	0xbee6af0b	-0.45055422
55	0x3cfd13cf	0.030893235
56	0x3cdf5e7e	0.027266737
57	0xbed81740	-0.42205238
58	0x3c5cb36b	0.013470511
59	0x3e77f2c9	0.24213709
60	0x3e338191	0.17529894
61	0xbeb2c7da	-0.349181
62	0x3e34ae8e	0.17644712
63	0xbe1fd9ac	-0.15610379
64	0xbf458813	-0.7716076
65	0xbe4728dc	-0.1944918
66	0xbebfe210	-0.3747716
67	0xbe0d7eac	-0.13817853
68	0xbe8cd748	-0.27507997
69	0xbe34b532	-0.17647246
70	0xbed9af6c	-0.4251665
71	0xbeef58ec	-0.4674753
72	0xbe011193	-0.1260436
73	0xbde7b35d	-0.11313508
74	0xbe82e6fa	-0.25566846
75	0xbe5d3f3d	-0.21606155
76	0x3e229f6d	0.15881129
77	0x3e1e1cf6	0.15440735
78	0xbecad559	-0.39615896
79	0xbeb3b02d	-0.3509535
80	0xbf4b6e07	-0.79464763
81	0x3e52e1bc	0.20593923
82	0x3f2e1112	0.679948
83	0xbd7485e7	-0.05969801
84	0xbe714b9e	-0.23564002
85	0xbe2b2b68	-0.16715777
86	0xbe30362b	-0.17208163
87	0xbf0645de	-0.5245036
88	0xbf037b80	-0.5136032
89	0xbd537ce2	-0.05163277
90	0xbdf0fb4c	-0.11766681
91	0x3dfa2b4f	0.12215292
92	0xbe564b14	-0.20927078
93	0xbda10761	-0.078627355
94	0x3e801018	0.2501228
95	0xbf1bb485	-0.60822326
96	0xbbef2885	-0.0072985315
97	0xbe774447	-0.2414714
98	0xbe928647	-0.2861807
99	0xbe992a59	-0.2991512
100	0xbe07e129	-0.13269486
101	0xbe59b6e6	-0.21261176
102	0xbec311e5	-0.3809959
103	0xbf1a317d	-0.60231763
104	0xbc4c3d76	-0.012465825
105	0xbee8eee2	-0.45494753
106	0xbea09bff	-0.31369016
107	0xbd84e380	-0.06488705
108	0xbea67794	-0.32513106
109	0x3e6912db	0.22761099
110	0xbcf4fc26	-0.02990539
111	0x3e5c107a	0.2149066
112	0xbe74dfa4	-0.23913437
113	0xbea74909	-0.3267291
114	0xbca49ce4	-0.020094343
115	0xbe5c42bb	-0.2150983
116	0x3e9f6d98	0.311383
117	0xbda0750a	-0.078348234
118	0xbe8254dd	-0.2545537
119	0xbd89b24b	-0.0672346
120	0xbe95fa64	-0.29292595
121	0xbeb729c2	-0.35774046
122	0xbdc4f7b9	-0.09617562
123	0xbcada334	-0.021195985
124	0xbe563c2c	-0.20921391
125	0xbe5e7666	-0.21724853
126	0xbea7fbf7	-0.3280942
127	0xbdce62ce	-0.10077439
128	0x3e4c5c66	0.19957122
129	0x3c7afbc6	0.0153188165
130	0xbb1ac8d2	-0.0023618233
131	0x3dab0c42	0.08351947
132	0x3cc3b341	0.023889186
133	0x3e222ddb	0.15837805
134	0xbde7e0ee	-0.11322199
135	0x3d6dfb5b	0.05810104
136	0xbd05791a	-0.032586195
137	0xbd68ab9e	-0.056804292
138	0xbc33c288	-0.010971673
139	0x3c98b77d	0.018642182
140	0x3e12c730	0.14333797
141	0x3e1bff1a	0.15234032
142	0x3ceb5402	0.028726581
143	0x3dc29a04	0.095020324
144	0xbe2938d5	-0.16525586
145	0x3c9b11c3	0.018929368
146	0x3e175c00	0.14781189
147	0x3e893dcf	0.2680497
148	0x3c54bf73	0.012985098
149	0x3d7dedc0	0.061994314
150	0xbdd71d15	-0.10503594
151	0x3ca026cf	0.019549755
152	0xbd9e299e	-0.077227816
153	0xbd67a3c8	-0.05655268
154	0xbc33049e	-0.010926394
155	0x3e46658d	0.19374676
156	0xbd27079c	-0.04077874
157	0x3de62710	0.11237919
158	0x3d9e89c1	0.07741118
159	0x3cb66479	0.022264706
160	0x3de5cbc3	0.11220505
161	0x3d288b7e	0.041148655
162	0xbd8cea50	-0.06880629
163	0xbd1c12d6	-0.0381039
164	0xbd9900d7	-0.07470863
165	0x3dc3e6d9	0.09565515
166	0xbdc29e15	-0.09502808
167	0x3d845673	0.064618014
168	0x3cc0e853	0.02354828
169	0xbdcc6ade	-0.09981321
170	0xb9ec5e4f	-0.00045083693
171	0x3e0cfda4	0.13768631
172	0xbd7498e5	-0.059716124
173	0xbca33fed	-0.019927943
174	0xbd99fde4	-0.07519129
175	0xbe3d68e9	-0.18497051
176	0xbe1c1de1	-0.15245773
177	0x3dee5e01	0.116390236
178	0xbdc564ad	-0.09638343
179	0x3d8b4859	0.068009086
180	0xbda78e6e	-0.08181463
181	0xbde54b46	-0.11195998
182	0x3e137d52	0.14403275
183	0x3d896014	0.067077786
184	0x3d7f6aa8	0.062357575
185	0xbd1b817c	-0.037965283
186	0xbd657681	-0.056021217
187	0xbb66a1e4	-0.003519171
188	0x3ca99b41	0.020703914
189	0xbc6da766	-0.014505243
190	0xbbb1f136	-0.005430366
191	0x3e53e867	0.20694123
192	0xbe749ba6	-0.238875
193	0x3e368bed	0.17826815
194	0xbdd6df28	-0.104917824
195	0x3f8668ac	1.0500693
196	0x3eb9b3a3	0.36269864
197	0x3d8d2adf	0.06892943
198	0xbf3762b6	-0.71634996
199	0xbf3a3a81	-0.7274552
200	0x3ea51866	0.32245177
201	0xbea4fce0	-0.32224178
202	0x3e774702	0.24148181
203	0xbd0d4d52	-0.034497567
204	0xbed7717a	-0.42078763
205	0xbea0cd78	-0.3140676
206	0xbe08c060	-0.13354635
207	0x3da95b0c	0.08269319
208	0xbe072652	-0.13198212
209	0xbdb4b73c	-0.08824012
210	0x3e4081e5	0.18799551
211	0x3e4846a4	0.19558197
212	0xbeebd698	-0.4606216
213	0x3ea5bbd0	0.32369852
214	0xbe8e3aca	-0.27779227
215	0xbf145a03	-0.57949847
216	0xbeca8bae	-0.39559692
217	0x3eee4dca	0.46543723
218	0xbec00c8a	-0.37509567
219	0x3f17193f	0.590229
220	0xbeb15296	-0.3463332
221	0x3e5e0fb2	0.21685675
222	0xbd4a1cf4	-0.049344018
223	0xbf30447b	-0.6885449
224	0xbe22c1a3	-0.15894179
225	0xbf3336ac	-0.700053
226	0x3e1d0465	0.15333708
227	0xbeb7e390	-0.35915804
228	0x3e975e2a	0.2956403
229	0x3e81db0b	0.2536243
230	0xbf286724	-0.6578238
231	0xbf142bdd	-0.5787943
232	0x3f0741a7	0.5283455
233	0x3d871289	0.06595332
234	0xbe2366f4	-0.15957242
235	0xbef3395e	-0.47504705
236	0x3ef58863	0.47955617
237	0x3e1b0cc3	0.15141587
238	0xbeec7a46	-0.46187037
239	0x3eb14d42	0.34629256
240	0x3f067ab3	0.52530974
241	0xbd6a84e6	-0.057255648
242	0x3f0113a7	0.5042061
243	0x3e3aa4fa	0.18226996
244	0xbdf5e697	-0.12006872
245	0x3eaa2eab	0.3323873
246	0xbebb5eb3	-0.36595687
247	0x3b3b65b4	0.0028594555
248	0x3da49f19	0.08038158
249	0xbf15b1b4	-0.5847428
250	0x3c78c2d7	0.015183172
251	0x3ece6e30	0.4031844
252	0x3e867e43	0.26268205
253	0xbe538b88	-0.20658696
254	0x3ea06d6a	0.31333476
255	0xbe9f0065	-0.31054989

lstm.weight_ih_l1 f4 [256, 64]
0	0xbd60783e	-0.054802172
1	0x3e9f89d8	0.31159854
2	0xbe8ba55a	-0.2727459
3	0x3e17e902	0.14834979
4	0x3e63b70c	0.22237796
5	0xbeee2155	-0.46509805
6	0xbdc1017f	-0.094241135
7	0xbe22423f	-0.15845583
8	0x3e0a259f	0.13490914
9	0x3ef37494	0.4754988
10	0x3e0202d0	0.12696385
11	0x3e022024	0.12707573
12	0xbf2622a8	-0.6489663
13	0xbf0cc4a7	-0.5498757
14	0x3e5da942	0.21646598
15	0x3e8ffd20	0.28122807
16	0x3cd885dc	0.026431017
17	0xbef134fd	-0.4711074
18	0xbebb35fd	-0.36564627
19	0x3e2df704	0.1698876
20	0xbe80c036	-0.25146645
21	0xbddf6b95	-0.109091915
22	0x3ea12cf2	0.31479603
23	0x3d9019e9	0.07036192
24	0x3da5f436	0.0810322
25	0x3e7958ac	0.24350232
26	0x3edb885b	0.42877468
27	0xbd73e0bd	-0.0595405
28	0x3f0f295b	0.5592248
29	0x3e3213f7	0.17390428
30	0x3e5c3a2a	0.21506563
31	0x3cc8d02e	0.02451333
32	0xbed53d7b	-0.41648468
33	0x3e136d87	0.1439725
34	0x3e2391cb	0.15973584
35	0xbe78ac6c	-0.24284524
36	0x3dc17f38	0.09448093
37	0x3daedc64	0.0853813
38	0x3dedf968	0.11619836
39	0xbe4e9a35	-0.20176013
40	0xbe8e2f82	-0.2777062
41	0xbca73196	-0.020409387
42	0x3ec9e0bd	0.39429274
43	0xbd877d8c	-0.06615743
44	0x3dc15aef	0.09441172
45	0xbc4a9592	-0.012364762
46	0x3e03c862	0.12869409
47	0x3df23a33	0.11827507
48	0xbc4b8165	-0.012420987
49	0x3d9c4eaf	0.07632195
50	0x3e1c3b6f	0.15257047
51	0x3deb5c70	0.114922404
52	0x3f17f9c6	0.593655
53	0x3d78e25b	0.060762744
54	0x3d5917c5	0.053001184
55	0x3ee11889	0.4396403
56	0x3e7dc50d	0.247822
57	0xbd40981c	-0.047020063
58	0x3da797b3	0.08183231
59	0xbec3d403	-0.3824769
60	0xbe888c5c	-0.26669586
61	0xbdd034a2	-0.10166289
62	0x3dd32b79	0.10311026
63	0xbd1a4845	-0.037666578
64	0xbbb269fe	-0.005444764
65	0x3d8c0eed	0.06838784
66	0x3e799463	0.24373011
67	0x3eb54391	0.35403112
68	0x3f42b419	0.7605606
69	0x3cd06b40	0.025441766
70	0x3de275f8	0.11057657
71	0x3deec1dc	0.116580695
72	0x3eb99867	0.36249086
73	0x3d93d006	0.07217412
74	0x3e0729bf	0.13199519
75	0x3d2e11c6	0.04249742
76	0xbe151b5b	-0.14561217
77	0x3dcf7c63	0.10131147
78	0xbd055221	-0.032549027
79	0x3efe14c0	0.49625206
80	0xbd2fcd8a	-0.042920627
81	0xbdb99812	-0.09062208
82	0x3e1364a7	0.14393865
83	0x3eea48e6	0.45758742
84	0x3e417f3a	0.1889619
85	0x3e931c4a	0.2873252
86	0x3e9ca206	0.30592364
87	0xbe8be31b	-0.27321705
88	0xbe154a75	-0.14579184
89	0xbe43795b	-0.19089262
90	0x3e2ec298	0.17066419
91	0x3d28d77b	0.041221123
92	0x3ce0a991	0.027424606
93	0x3ef74bab	0.48299918
94	0x3e8fde56	0.28099316
95	0xbe9c7dab	-0.30564627
96	0xbe3fd996	-0.18735346
97	0x3dfc05af	0.123057716
98	0xbeae0f71	-0.33996156
99	0x3c5348f9	0.012895816
100	0xbe2081d5	-0.15674527
101	0x3ec4507d	0.38342658
102	0x3d671801	0.056419376
103	0x3de91cac	0.11382422
104	0x3ead2b09	0.33821896
105	0xbd8468eb	-0.06465324
106	0x3cde2898	0.027118966
107	0xbe872810	-0.26397753
108	0xbe780d8e	-0.2422392
109	0x3e082cdf	0.13298367
110	0xbe28cd8a	-0.16484657
111	0x3bbab708	0.0056980886
112	0xbe60bb77	-0.21946512
113	0x3d9287ca	0.07154806
114	0xbeec0cb4	-0.46103442
115	0xbc4982df	-0.0122992685
116	0x3df7d5fe	0.12101363
117	0xbf02f67e	-0.5115737
118	0x3dca8ce9	0.09890158
119	0x3e1cd993	0.15317373
120	0xbefed686	-0.49773043
121	0xbee89ab1	-0.4543052
122	0x3d61b84b	0.055107396
123	0xbd601ed8	-0.054716915
124	0x3e365501	0.17805864
125	0x3d25d4c2	0.040486105
126	0xbdd09703	-0.10185053
127	0x3d256c89	0.04038671
128	0x3d525832	0.05135364
129	0x3e562822	0.20913747
130	0xbe28fc99	-0.16502608
131	0x3e8b95e3	0.27262792
132	0xbe202feb	-0.15643279
133	0xbe661984	-0.22470671
134	0xbb8c1f31	-0.0042761792
135	0x3d4f6d28	0.05064121
136	0xbebf121e	-0.3731851
137	0x3df3234f	0.11871969
138	0xbdb8978d	-0.09013281
139	0xbd8431db	-0.06454822
140	0xbe85dfe9	-0.26147392
141	0xbe1af915	-0.1513408
142	0xbdeac110	-0.11462605
143	0xbf2b0933	-0.6681091
144	0x3d85ee1e	0.06539558
145	0xbdf3615a	-0.11883803
146	0xbe909930	-0.28241873
147	0x3c3c6917	0.011499665
148	0xbe980d0b	-0.2969745
149	0xbea32d43	-0.3187047
150	0x3e55f326	0.20893535
151	0x3e0db886	0.13839921
152	0xbd0f6d81	-0.03501654
153	0x3e02c217	0.12769352
154	0x3e615fdf	0.22009228
155	0xbe6a3f73	-0.22875766
156	0x3db776db	0.08958217
157	0xbed06107	-0.40699026
158	0x3e3ef9f7	0.18650042
159	0x3e890dfb	0.2676848
160	0xbe2f0b73	-0.17094211
161	0x3e0e7cb2	0.13914755
162	0x3e8215f1	0.25407365
163	0xbddf1d25	-0.10894231
164	0x3d9a21bb	0.07525965
165	0xbe3bea15	-0.18351014
166	0x3dc5a45d	0.096504904
167	0xbe749e5b	-0.23888533
168	0xbe647f67	-0.22314225
169	0xbe772503	-0.24135213
170	0xbde03e3a	-0.10949369
171	0x3d92f157	0.07174938
172	0x3e2774a3	0.16353087
173	0xbb4f7b80	-0.0031659305
174	0xbd9c496a	-0.0763119
175	0xbd8ad348	-0.0677858
176	0x3d033236	0.032030307
177	0xbe9364f0	-0.28787947
178	0x3e84a3db	0.25906262
179	0x3c832720	0.016009867
180	0x3ecc502d	0.3990492
181	0x3e5d2ad3	0.21598367
182	0xbea57f05	-0.3232347
183	0xbc0734b2	-0.00825231
184	0x3eafdff6	0.34350556
185	0x3d86741e	0.06565116
186	0xbbbfc784	-0.0058526415
187	0xbe21c5bb	-0.15798084
188	0xbe894624	-0.26811326
189	0xbc2ad71a	-0.010427261
190	0x3e165551	0.14680983
191	0xbd4f2446	-0.050571702
192	0x3c778d08	0.015109308
193	0xbdadf487	-0.084939055
194	0xbd3aad9c	-0.045575723
195	0xbe8caad2	-0.27474076
196	0xbd2eb58e	-0.042653613
197	0x3c59ac7a	0.0132857505
198	0xbda1bcb7	-0.078973226
199	0xbde35863	-0.11100843
200	0x3e1e2fb7	0.1544789
201	0x3d7124c9	0.05887297
202	0x3ea43824	0.32074082
203	0x3eb5f452	0.35537964
204	0xbde4ab6c	-0.11165509
205	0xbe1d55c9	-0.15364756
206	0x3e7c6794	0.24648887
207	0xbe0da56d	-0.13832636
208	0xbc4f62ae	-0.012657804
209	0xbe65a019	-0.22424354
210	0x3ad741e3	0.0016422834
211	0xbed182d4	-0.40920126
212	0xbe9947b7	-0.29937527
213	0x3e2ddaa5	0.16977938
214	0xbe20c9cd	-0.15701981
215	0x3e70ef09	0.23528685
216	0xbc2cfaab	-0.010557811
217	0x3decde3d	0.11565826
218	0x3e0f336f	0.13984464
219	0xbe2640ab	-0.16235606
220	0x3c5da064	0.01352701
221	0xbd762edd	-0.060103286
222	0x3d3c795a	0.046014167
223	0x3c53fa94	0.01293816
224	0xbe3f7d54	-0.18700153
225	0x3dd004e5	0.101571836
226	0xbd83928d	-0.06424437
227	0x3de834dc	0.11338207
228	0x3c679242	0.014133992
229	0x3c910282	0.017701391
230	0x3e1af886	0.15133867
231	0xbe4bc90f	-0.19900917
232	0x3ccd5e10	0.025069267
233	0x3e737b37	0.23777471
234	0x3ef60404	0.4804994
235	0x3d7777b4	0.060416892
236	0xbe924819	-0.2857063
237	0x3e69da93	0.22837286
238	0x3e1caefa	0.15301123
239	0x3e64acfa	0.2233161
240	0x3e805ecb	0.2507232
241	0x3e14adb8	0.14519393
242	0xbe56fa1d	-0.20993848
243	0xbdde62b5	-0.108586706
244	0x3e3d8772	0.185087
245	0x3eaa00aa	0.33203632
246	0xbd06029e	-0.03271734
247	0x3e6978eb	0.22800033
248	0x3dc65032	0.09683265
249	0x3edc3764	0.4301101
250	0xbdcd4f46	-0.10024886
251	0x3e12f4a9	0.14351143
252	0x3da29078	0.079377115
253	0xbe18b345	-0.14912136
254	0xbe2173d3	-0.1576684
255	0x3d51ded0	0.05123788

lstm.weight_hh_l1 f4 [256, 64]
0	0x3e216c49	0.15763964
1	0x3e482a18	0.19547307
2	0x3ef916e2	0.4865027
3	0x3d91a4c2	0.07111503
4	0x3e8552b1	0.2603965
5	0x3e548ade	0.20756099
6	0xbdcdd16a	-0.10049708
7	0x3efcfebf	0.49413106
8	0x3e52e571	0.20595337
9	0x3c1d673c	0.0096071325
10	0xbdfd0062	-0.12353589
11	0xbcea4fb8	-0.028602466
12	0x3e62c0a1	0.22143795
13	0x3e3e3487	0.18574725
14	0xbec8792c	-0.39154947
15	0x3e143645	0.14473827
16	0xbeb6fe07	-0.35740682
17	0x3d8e3f69	0.06945688
18	0xbe415523	-0.18880133
19	0x3d9a9a53	0.07548966
20	0xbd8ad57c	-0.06779
21	0xbe794fc7	-0.24346839
22	0xbe486827	-0.19570981
23	0x3e61705d	0.2201552
24	0x3ea72b73	0.32650337
25	0x3dbd5277	0.092442445
26	0x3e1cb3cd	0.15302964
27	0xbda3c4b6	-0.07996504
28	0x3e3d4eaa	0.18487039
29	0x3bd33d3d	0.006446509
30	0x3dca2ed1	0.09872211
31	0xbccae018	-0.02476506
32	0xbe367254	-0.1781705
33	0xbee9eb52	-0.45687348
34	0xbd462721	-0.04837716
35	0x3ea7f82a	0.32806522
36	0x3d37addd	0.044843543
37	0xbde1a845	-0.11018423
38	0x3d6f378d	0.058402587
39	0x3d173db0	0.036924064
40	0xbf2070c1	-0.6267205
41	0x3e8c5179	0.2740591
42	0x3de60481	0.11231328
43	0x3e9aaec7	0.3021147
44	0x3edc3962	0.4301253
45	0x3e464294	0.19361335
46	0x3eba9241	0.36439708
47	0xbd1c368a	-0.03813795
48	0xbe76eca4	-0.24113709
49	0x3eb1b840	0.34710884
50	0x3cd97ad0	0.02654782
51	0xbe86072b	-0.26177344
52	0xbdd267aa	-0.102736786
53	0xbf058522	-0.5215627
54	0xbe082475	-0.13295157
55	0xbe3b7767	-0.18307267
56	0xbd13e255	-0.03610452
57	0xbdc0e809	-0.09419257
58	0xbeb34437	-0.3501298
59	0x3f2ee00f	0.68310636
60	0x3ee968f2	0.4558788
61	0xbd6482ba	-0.055788733
62	0x3dd02479	0.101632066
63	0x3e883a3d	0.26606932
64	0xbf06f2bb	-0.5271413
65	0x3f0222b8	0.50834227
66	0xbf114e07	-0.56759685
67	0x3ed3545f	0.41275308
68	0x3eb6fdb5	0.35740438
69	0xbe685464	-0.22688442
70	0x3ee6b9c7	0.45063612
71	0xbf1e84f5	-0.61921626
72	0x3ee5fed2	0.44920975
73	0x3eaa89b0	0.33308172
74	0x3e2bf28b	0.16791742
75	0xbcf19cfe	-0.029493805
76	0x3ef2cc7f	0.47421643
77	0xbdfd3903	-0.1236439
78	0xbd5a77a6	-0.053336762
79	0xbe79ce80	-0.2439518
80	0x3e094701	0.13405992
81	0x3d4e14f1	0.05031294
82	0xbd0cef50	-0.034407914
83	0x3eb07b70	0.34469175
84	0xbe9292f3	-0.28627738
85	0x3e00a91a	0.12564507
86	0x3f20b5f5	0.62777644
87	0xbda70819	-0.081558414
88	0xbe8f3ead	-0.27977505
89	0x3de1e733	0.11030426
90	0x3e897391	0.26845983
91	0xbdbf0600	-0.09327316
92	0xbd1a56a9	-0.0376803
93	0xbe9bcd6c	-0.30430162
94	0x3cdba7cb	0.026813408
95	0x3de6b70e	0.11265384
96	0xbeab5d15	-0.33469453
97	0xbe7b2169	-0.24524464
98	0xbdf156c8	-0.1178413
99	0xbceee007	-0.029159559
100	0xbd37845d	-0.044803966
101	0xbe079628	-0.13240874
102	0xbe807299	-0.2508743
103	0xbe18c8ed	-0.14920397
104	0x3ee141f8	0.43995643
105	0xbd70f9e3	-0.05883206
106	0xbe2160ed	-0.1575963
107	0x3e45c395	0.1931289
108	0x3ce6b483	0.028162247
109	0x3dfe195b	0.1240718
110	0xbee076c3	-0.43840608
111	0x3e09cfaf	0.13458131
112	0x3e52a1ec	0.20569581
113	0xbeaf99c1	-0.34296992
114	0x3b96fd60	0.0046078414
115	0x3e08fcb7	0.13377653
116	0xbee3617e	-0.44410318
117	0x3da8a7e4	0.082351476
118	0xbd6cba42	-0.057794817
119	0xbd8b49b0	-0.06801164
120	0x3de134bc	0.109963864
121	0xbe87f8f6	-0.2655713
122	0xbdef353d	-0.11680076
123	0x3f16885f	0.58801836
124	0xbe1307bf	-0.14358424
125	0xbe45c441	-0.19313146
126	0xbdc694c7	-0.09696346
127	0x3e9d66b8	0.3074243
128	0x3e6621a3	0.22473769
129	0xbe738a3b	-0.237832
130	0x3e9ea168	0.30982518
131	0x3f031e52	0.5121814
132	0x3eda193a	0.4259737
133	0x3ed47396	0.41494435
134	0xbd13c941	-0.036080603
135	0xbe6cb0f4	-0.23114377
136	0xbe17e5e9	-0.14833798
137	0xbe0bfd57	-0.1367086
138	0x3ea47b53	0.3212534
139	0x3db0c0a7	0.086304955
140	0xbd9c4e1a	-0.07632084
141	0x3d10be7a	0.035337903
142	0xbdc7e242	-0.09759952
143	0x3e78a964	0.24283367
144	0xbe8c18d9	-0.27362707
145	0xbe8b19a7	-0.2716801
146	0x3dc4c7ea	0.09608443
147	0x3d1090b1	0.03529424
148	0x3e499932	0.19687346
149	0xbd731b3f	-0.059352156
150	0x3d8d0217	0.06885164
151	0xbd9534ad	-0.07285438
152	0x3ea07910	0.31342363
153	0x3dfd69d6	0.12373702
154	0x3ea78ec9	0.32726124
155	0xbceaedee	-0.028677907
156	0xbe3c4edf	-0.18389462
157	0xbe92558b	-0.2858089
158	0xbf0d7879	-0.5526195
159	0xbd92c2a7	-0.07166033
160	0x3ea2fbe9	0.31832817
161	0x3ea554d2	0.32291275
162	0x3e72a0dc	0.23694175
163	0x3ead456b	0.33842024
164	0xbda53707	-0.08067136
165	0x3e93719d	0.28797618
166	0xbd8c302a	-0.06845124
167	0x3db48022	0.08813502
168	0x3dd8434f	0.10559713
169	0x3e59c32d	0.2126586
170	0xbed7dc83	-0.42160425
171	0x3d988a2a	0.07448228
172	0x3e3213e0	0.17390394
173	0xbdd14b58	-0.10219449
174	0x3d6c4d0b	0.05769066
175	0x3e1a72f0	0.15082908
176	0x3e4ea19b	0.20178835
177	0x3e15a506	0.14613733
178	0x3d471d33	0.04861183
179	0xbc9075eb	-0.017634353
180	0x3e2e5b61	0.17027046
181	0xbb86faea	-0.0041192668
182	0xbe97a209	-0.2961581
183	0x3e1d4b4c	0.15360755
184	0x3df3348f	0.11875259
185	0xbd4d15d6	-0.050069652
186	0xbc8ab6f2	-0.016932938
187	0xbd0c6557	-0.034276333
188	0x3e61a60e	0.22036001
189	0xbdd291b5	-0.10281698
190	0xbcdbe35a	-0.026841808
191	0x3dcc8e51	0.09988082
192	0x3e8e74b7	0.2782342
193	0xbdf2b34a	-0.11850603
194	0x3d74bdbf	0.05975127
195	0xbda294c9	-0.07938535
196	0x3d91207e	0.070862755
197	0x3f30ab26	0.6901115
198	0xbe97f2d4	-0.2967745
199	0x3ef70c95	0.48251787
200	0x3a2ea07c	0.0006661487
201	0x3d815692	0.0631534
202	0xbecc0033	-0.39843902
203	0xbe295d16	-0.16539416
204	0xbe4dc23b	-0.20093624
205	0x3e822ad4	0.254233
206	0xbe4180c3	-0.18896775
207	0xbd61b434	-0.055103496
208	0x3d6183ca	0.055057324
209	0xbc85f711	-0.016353162
210	0x3f0723d6	0.52789056
211	0xbe3fbfc3	-0.18725495
212	0xbf3c8679	-0.7364269
213	0x3d537c95	0.051632483
214	0xbe134072	-0.14380053
215	0xbe8fbb91	-0.2807279
216	0x3ef43c3f	0.47702214
217	0xbf1bcdd9	-0.60860974
218	0xbf07aa10	-0.5299387
219	0xbe14f92d	-0.14548178
220	0xbae2f775	-0.001731618
221	0xbeadc9a4	-0.33942902
222	0x3ea56597	0.3230407
223	0x3e823a45	0.2543508
224	0x3e25e9f8	0.16202533
225	0xbd2755e4	-0.040853396
226	0x3d4b0f68	0.04957524
227	0x3cd02df1	0.025412532
228	0x3e9bba7c	0.30415714
229	0xbeaee05e	-0.34155554
230	0x3e691d1d	0.22765012
231	0x3e9089b9	0.28230074
232	0x3eacfa87	0.33784887
233	0x3ea723c0	0.32644463
234	0xbeacada6	-0.33726233
235	0xbf1f5b44	-0.62248635
236	0xbe914fe6	-0.2838127
237	0x3e045020	0.1292119
238	0x3e8a19ce	0.26972812
239	0x3e457bba	0.19285479
240	0x3e29de83	0.16588788
241	0xbe2ecda4	-0.17070633
242	0xbd3e6956	-0.046487175
243	0xbe383187	-0.17987643
244	0x3ec25b2a	0.37960178
245	0xbe89e038	-0.26928878
246	0xbd0e2d1e	-0.034710996
247	0x3e30bd6b	0.17259757
248	0x3c9c3a35	0.019070724
249	0xbe321f97	-0.17394863
250	0x3f2e833e	0.6816901
251	0xbf20f530	-0.62874126
252	0xbed47645	-0.41496482
253	0x3e4036e2	0.18770936
254	0xbd337cfc	-0.043820366
255	0xbef20fd7	-0.4727771

lstm.bias_ih_l1 f4 [256]
0	0xbefc2cd8	-0.49252963
1	0xbe6bc42a	-0.2302405
2	0xbec4e8e9	-0.38458946
3	0xbdf9da1f	-0.121998064
4	0x3dde41c0	0.108523846
5	0xbe1cd29d	-0.15314718
6	0xbe5aa657	-0.21352516
7	0xbe1fb795	-0.15597375
8	0xbe5b8bb6	-0.21440014
9	0x3ea6dd4e	0.32590717
10	0xbef507fe	-0.4785766
11	0xbc7e0d4f	-0.015506103
12	0xbe1fb56a	-0.15596548
13	0xbdae1131	-0.08499373
14	0xbe8ea9dd	-0.2786397
15	0xbdd61689	-0.10453517
16	0xbd312c3e	-0.043255083
17	0xbe4e6fac	-0.20159787
18	0x3bd67863	0.006545113
19	0xbea07f2a	-0.31347018
20	0xbe787c09	-0.24266066
21	0xbe8d6e91	-0.27623418
22	0x3ec5ce33	0.3863388
23	0xbf00e7f3	-0.50353926
24	0xbe906136	-0.28199166
25	0x3caba203	0.020951277
26	0x3e80c515	0.25150362
27	0xbd0cd033	-0.03437824
28	0xbd8fd408	-0.070228636
29	0x3b3cfc70	0.0028836988
30	0xbe9eea18	-0.31037974
31	0xbe113306	-0.1417962
32	0xbee70d24	-0.45127213
33	0xbe0f23bc	-0.13978475
34	0xbe891f43	-0.26781663
35	0xbe925e0e	-0.28587383
36	0xbdc53141	-0.09628535
37	0xbe00b0bf	-0.12567423
38	0xbead91ce	-0.33900303
39	0x3e220a9b	0.15824358
40	0x3e6fa69e	0.23403403
41	0xbefe9ce1	-0.49729064
42	0xbe7c9acb	-0.24668424
43	0x3d36b2d8	0.044604152
44	0x3d972724	0.07380512
45	0xbdcffb5f	-0.10155367
46	0x3c2a1166	0.010380125
47	0x39e2d797	0.00043266706
48	0xbd133c85	-0.035946388
49	0x3d345bcd	0.04403286
50	0xb869d90b	-5.5753666e-05
51	0xbf66954b	-0.90071553
52	0xbd1e427d	-0.038637627
53	0xbeb4c8ae	-0.35309356
54	0x3cb622e9	0.022233443
55	0xbd6f08d7	-0.05835804
56	0xbe5a859c	-0.2134003
57	0xbef62588	-0.4807551
58	0x3d15fd34	0.036618426
59	0xbdc9a68e	-0.09846221
60	0x3ebc472d	0.36773053
61	0x3e4c4491	0.19948031
62	0x3e3b2135	0.18274386
63	0xbea5064f	-0.32231376
64	0xbe359c59	-0.17735423
65	0x3e2fe65c	0.17177719
66	0xbde898a9	-0.113572426
67	0x3ee3e68f	0.4451184
68	0xbc07f908	-0.00829912
69	0xbd64a1f1	-0.0558185
70	0xba962e61	-0.0011457914
71	0xbe999141	-0.29993632
72	0xbe615381	-0.2200451
73	0x3ca58d2a	0.020208914
74	0xbe5aaaf4	-0.21354276
75	0xbe80f563	-0.25187215
76	0xbe950954	-0.2910868
77	0x3e3d0b3a	0.18461314
78	0xbd77c959	-0.060494754
79	0x3db0bf28	0.0863021
80	0x3ea3d33d	0.319971
81	0xbe28c188	-0.16480076
82	0xbe54883b	-0.20755093
83	0x3e13d653	0.14437227
84	0xbda11123	-0.07864597
85	0xbdf20b9e	-0.11818622
86	0xbd3bd40e	-0.045856528
87	0xbe814418	-0.25247264
88	0x3d3a212a	0.045441784
89	0x3e1ac8a3	0.151156
90	0x3bca318e	0.006170458
91	0xbc811f4e	-0.015761998
92	0x3a6bffb2	0.000900264
93	0x3d411254	0.04713662
94	0x3f26b6b4	0.6512253
95	0x3ea82967	0.32844087
96	0xbe713f9a	-0.23559418
97	0x3f02ddb6	0.51119554
98	0xbda5e7ca	-0.08100851
99	0xbd3c98d2	-0.04604418
100	0xbd8ecce9	-0.06972677
101	0xbd8bc180	-0.068240166
102	0x3de3e518	0.111276805
103	0xbca42feb	-0.02004238
104	0xbc7b5b25	-0.015341555
105	0x3d66bd89	0.0563331
106	0xbcfa9660	-0.030589283
107	0xbe3cecf2	-0.18449762
108	0x3e3fba4a	0.18723407
109	0x3edb1c39	0.4279497
110	0x3e06666a	0.13125005
111	0xbd0608f4	-0.032723382
112	0xbe91e03f	-0.284914
113	0xbdd08117	-0.10180872
114	0x3e0dbd95	0.13841851
115	0xbec95f1e	-0.3933038
116	0xbdf678cf	-0.12034761
117	0xbea7dfce	-0.32787937
118	0xbe524b98	-0.20536649
119	0x3e5239f0	0.20529914
120	0x3f36a7e0	0.71349907
121	0xbe42bf1d	-0.19018216
122	0x3e9592f6	0.29213685
123	0xbe080e0e	-0.13286611
124	0x3d888481	0.06665898
125	0x3ed261f1	0.41090348
126	0xbe7f9f45	-0.249631
127	0x3de930fc	0.11386296
128	0xbd48f04e	-0.049057297
129	0xbd818c1c	-0.06325552
130	0xbcf63fe6	-0.030059766
131	0xbb419fee	-0.0029544788
132	0x3e2c0489	0.16798605
133	0xbd5d2d22	-0.05399812
134	0xbe80e00a	-0.25170928
135	0xbd4ed9fd	-0.05050086
136	0xbe0e0785	-0.13870056
137	0x3dc586b9	0.09644837
138	0x3e3849ed	0.1799695
139	0x3ce451cb	0.027871033
140	0xbd63b3f2	-0.05559153
141	0xbdc62849	-0.096756525
142	0xbda823b6	-0.08209936
143	0xbc8f6fab	-0.017509302
144	0x3d715beb	0.05892555
145	0xbde3c0fe	-0.11120795
146	0xbdb72db4	-0.08944264
147	0x3c85b844	0.016323216
148	0x3c602f2b	0.013683121
149	0x3e2e00ab	0.16992442
150	0x3d9a96af	0.07548272
151	0xbdc769b3	-0.097369574
152	0xbe6cc0e3	-0.23120455
153	0x3e25e2cd	0.16199799
154	0x3e047b53	0.1293767
155	0x3c1780f1	0.009247051
156	0xbd3495cf	-0.04408818
157	0xbd87e1bb	-0.066348515
158	0x3d7c198d	0.061547805
159	0xbb5d9086	-0.0033808067
160	0x3defbbe6	0.11705761
161	0xbc3de9e5	-0.011591409
162	0xbd0cea4f	-0.03440314
163	0xbcdec010	-0.027191192
164	0xbdb15a80	-0.0865984
165	0xbd23fae0	-0.040034175
166	0x3d3b5619	0.045736406
167	0xbdff9b07	-0.12480741
168	0xbe0085bc	-0.12551016
169	0x3cc25d30	0.023726076
170	0xbe32048f	-0.17384551
171	0xbd2559d8	-0.040368885
172	0xbdc82335	-0.0977234
173	0xbe0f4e0d	-0.13994618
174	0xbcf24a6d	-0.029576505
175	0x3d9d8528	0.07691413
176	0x3e7a09b3	0.24417762
177	0xbe3cbcbc	-0.18431371
178	0x3e0494bb	0.12947361
179	0xbd98c7eb	-0.07460006
180	0xbd2a4b69	-0.041575823
181	0x3dbe9dab	0.093074165
182	0xbdb7ce73	-0.08974924
183	0xbded23d5	-0.115791
184	0xbde59c83	-0.11211493
185	0x3d4e86a6	0.05042138
186	0x3b49496e	0.0030713934
187	0xbdb5c5ae	-0.08875595
188	0xbdff347c	-0.124611825
189	0xbd51152c	-0.05104558
190	0xbc0d479b	-0.008623029
191	0xbdad7290	-0.08469117
192	0xbf065af7	-0.5248255
193	0x3d70edf7	0.05882069
194	0xbeb6cb24	-0.3570186
195	0xbe6dd76d	-0.2322671
196	0xbcec6b8a	-0.028859872
197	0xbe3bc22e	-0.18335792
198	0xbe9c9a8b	-0.30586657
199	0x3d07bcd0	0.03313905
200	0xbc48915d	-0.012241689
201	0x3e721cda	0.23643818
202	0xbec8780e	-0.39154094
203	0xbe29fb87	-0.16599856
204	0xbe6b6ebb	-0.22991459
205	0xbe438c0c	-0.19096392
206	0xbe51d694	-0.20492011
207	0x3d73c6bd	0.059515703
208	0xbdb944fa	-0.09046359
209	0xbe66bfdd	-0.22534128
210	0x3e654d72	0.22392824
211	0xbda2962b	-0.079387985
212	0xbe90e4fa	-0.28299695
213	0xbe93ec91	-0.28891423
214	0x3e6c2e47	0.23064528
215	0xbef20f67	-0.47277376
216	0xbe70451d	-0.23463865
217	0x3dca6de9	0.09884245
218	0x3ec3185e	0.38104528
219	0xbd843440	-0.064552784
220	0x3d5e0adf	0.054209586
221	0x3e01b60d	0.12667103
222	0xbddac746	-0.1068254
223	0x3dedde30	0.116146445
224	0xbf0fa641	-0.5611306
225	0x3d480073	0.048828553
226	0xbef58d99	-0.47959593
227	0xbe49916e	-0.19684383
228	0xbf00b69d	-0.50278646
229	0xbe2b3c04	-0.16722113
230	0xbec91eb7	-0.39281246
231	0xbda57388	-0.080786765
232	0x3e267172	0.16254213
233	0xbeff9d21	-0.49924567
234	0xbe67c836	-0.22634968
235	0x3ebff626	0.37492484
236	0xbeb15dd4	-0.34641898
237	0xbe524e50	-0.20537686
238	0x3d43fd41	0.047848944
239	0xbe00081b	-0.12503092
240	0xbea4396b	-0.32075056
241	0xbcef14ec	-0.029184781
242	0xbdc953f9	-0.0983047
243	0xbf5be2f4	-0.8589318
244	0x3d2cf491	0.042225424
245	0xbe7738e3	-0.24142794
246	0xbe2fa44e	-0.17152521
247	0x3acd9738	0.0015685325
248	0x3e810b42	0.25203902
249	0xbed35f5a	-0.41283685
250	0x3e5da2e8	0.21644175
251	0xbd25095c	-0.04029213
252	0x3d3d9b95	0.046290953
253	0xbe410014	-0.18847686
254	0x3e289f3e	0.16466996
255	0xbd55f53d	-0.05223583
